wake-word-detection/models/hey_nova.onnx (onnx, 205430 bytes, 9 tensors)

layer1.weight f4 [32, 1536]
00000000: 6a39 433c 3705 b4bc 8bba c4bc c334 27bd
00000010: 4591 e53b 28e9 9d3c bf0d bbbc ff30 583b
00000020: f1c5 2cbd 924a e5bc d2a3 40bc 4202 853c
00000030: e95b 953b e82c 073d 2047 dbbc ced6 7bbc
00000040: cd48 eb3c 2e76 12bc 7928 083c 6550 ad3c
00000050: bc6b c83c bb44 9a3c ec0d acbc c80c 17bc
00000060: 1e7e c7bc e057 123c 2063 83bc 679c 833c
00000070: be48 94bb 3275 553c b4a1 16bc 597a 22bb
00000080: 317b adbc 553f d83c 0640 2f3c 0a14 c6bc
00000090: a5d0 0d3c a21f 18bb 511a 503c 23da 663c
000000a0: a99c 1dbc d3be 35bc ffd4 a8bb ddbb 92ba
000000b0: 140b debb 2a80 edbb e616 bbbc 1474 283c
000000c0: 9c26 01bd 566e 643b 065e 843c aaa7 e13c
000000d0: d9b7 9bbc 14c1 d43c f72f 6dbb a756 c33c
000000e0: 38ce 13bb cf56 8fbc 07b3 89bc 9fb0 063c
000000f0: a2d5 d2bc 553d bbbc 2167 a53c b890 78bc
00000100: a5ae 0f3c 8a40 933c 0643 083b 8730 ab3c
00000110: 426f 443c f42c 8a3b 5630 453c 1428 55bc
00000120: b98d 823a 1742 8cbc babd 1b39 d8de a43c
00000130: 45c6 d13b 32f1 1e3c 674f 03bc 6398 9c3c
00000140: da33 4e3c 959c 06bc caf3 aebc 48d7 40bb
00000150: 1ed7 75bc 7527 0fbd ce61 e7bb 4dd1 71bc
00000160: 81de 6fbc 867d c7bb b27d b9ba 04ae cb3c
00000170: 3eb0 70bc 6ad2 ca3c 0360 a53b 8b64 8bbb
00000180: b254 6abc c45d 5d3c 42d1 c9bc dee4 2cbc
00000190: b430 11bc ca36 b33b fd8c 42bc c020 8ebc
000001a0: a345 dfbb 9fa6 2e37 0d06 32bb 570a f03c
000001b0: 59de cdbc b90d 7e3b d4fe 663c 9537 ffbb
000001c0: 84d2 abbc 8254 7cbb a956 c33b 3a42 a23c
000001d0: c3f3 dc3c 512f f73a ca92 863c acd0 22bd
000001e0: abcd 32bb b6ee 8d3c 9f45 813c 1a51 3e3b
000001f0: 6424 9d3b 43c6 803c bb43 cc3c a791 c8bc
00000200: b599 a5bc e704 acbc b3af d6bc afce d93c
00000210: 9130 bdbb d322 96bc 5942 223d f0a7 3fba
00000220: fa9a 3d3c a076 b73c c1e3 b0bc 4ad3 6aba
00000230: c323 37bc 3d15 93bc bb44 58bc 47d4 a6bb
00000240: c01d 08bb 34e7 9f3b 0738 81ba fc8b a93c
00000250: e6a3 eb3b ebad df3c 1374 ba3c a991 b03c
00000260: 863c c6bc 7568 8cbc ad21 b8bb 2d03 8b3c
00000270: 275e 7f3c b13a a4bb 8cf0 153c ca02 78bc
00000280: 6a31 3e3c 6f6e 703c d648 25bc a2ce a23c
00000290: 2db1 943b af83 583c a054 ccbc c4cd 813c
000002a0: d3e1 76bc 09cf 8bbc 26d4 45bb d484 cc3b
000002b0: 8e61 82bb a613 ccbb 2e49 30ba e8a0 b9bc
000002c0: da08 f13c a204 9d3c 6cce 113c b507 923c
000002d0: 8526 5ebc b76f 003c 8a95 9fba 4c05 43bc
000002e0: d7f2 87ba aa78 9c3c 1476 3fbc a2f2 a43b
000002f0: d8a9 853c a0b2 ae3c ea9c 963c bc85 f8bb
00000300: a87c 66bb 23ca a13c d067 4c3b af64 d8bc
00000310: b3d7 253c 0e63 163b 313a a1bc b357 633c
00000320: 586d a3bb f4ac 7f3c 131d 4ebc 991a babb
00000330: 8f48 c4bc 170e a73c 1191 d7bc 3ae2 7dbc
00000340: aeb0 54bc 41ec 283b 9408 843b 27fd 873b
00000350: 3814 87bb 948e c2bc 4bc4 933b ae85 89bc
00000360: afcc 443b f581 c73c 67e9 b93b f69b babc
00000370: bb3a a93c 326e 853b d68a 823b 2dcd 233c
00000380: 9ad2 5e3c 525e 1ebd a080 a5bc c47d b73b
00000390: 71be 03bc 2ba2 393c 5164 b13c 1853 3d3b
000003a0: 5189 6e3c 6027 9fbb 34c7 533b 593f 343c
000003b0: f3c6 b9bc 90c5 26bc b417 84bc 295e a5bb
000003c0: 1eab 8fbb d9dc 3d3d ee95 9e3c 4059 703c
000003d0: dd49 25bc bcaa 1a3a d551 ccbc 890e cabc
000003e0: 7f41 4abb c02b a53b a57b 853c 3a2b 9d3c
000003f0: 59b8 bdbb 9a3c 963b 6146 58bc c4a4 d0bc
0.011915544 -0.021975143 -0.024014732 -0.040821802 0.007005843 0.019276217 -0.022833703 0.0032988188
-0.04218096 -0.02798966 -0.011757808 0.016236428 0.0045580757 0.03300181 -0.026767313 -0.015371038
0.028721238 -0.008939309 0.008310431 0.0211565 0.024465434 0.018831601 -0.021002732 -0.009219356
-0.02435213 0.008932084 -0.016038477 0.01606579 -0.004525273 0.01302843 -0.0091938265 -0.0024792163
-0.021176906 0.026397387 0.010696417 -0.024179477 0.008655702 -0.0023212214 0.012701587 0.014090094
-0.00961987 -0.011092859 -0.0051523442 -0.0011194904 -0.006776223 -0.0072479444 -0.022838067 0.010281581
-0.03153096 0.0034855804 0.016158115 0.027545769 -0.019008564 0.025970973 -0.003619192 0.02384503
-0.0022553336 -0.017497448 -0.016809 0.008220821 -0.025736634 -0.022856394 0.020190777 -0.015171222
0.008769666 0.01797511 0.0020791902 0.020897163 0.011989417 0.0042167846 0.01203545 -0.013010044
0.000996045 -0.017121358 0.0001485263 0.020125791 0.0064018094 0.00970106 -0.008014536 0.019115632
0.012585605 -0.008216043 -0.021356482 -0.0029425193 -0.015004901 -0.03494974 -0.00706122 -0.014759374
-0.014640451 -0.0060879616 -0.001415184 0.02486325 -0.014690457 0.024758536 0.005046846 -0.004253929
-0.0143024195 0.013511125 -0.024635915 -0.010552613 -0.008861709 0.005469178 -0.011874435 -0.0173496
-0.0068137213 1.0410003e-05 -0.002716425 0.029301805 -0.025130438 0.0038765504 0.014098842 -0.0077886083
-0.020974405 -0.003850252 0.0059612584 0.01980697 0.026971703 0.0018858706 0.016427416 -0.039749786
-0.0027283232 0.01732574 0.015780268 0.002904004 0.004795598 0.015719539 0.02493464 -0.024483515
-0.020214895 -0.020998431 -0.026206827 0.026587812 -0.005773612 -0.018327152 0.039614055 -0.00073110964
0.011572594 0.022395432 -0.021592977 -0.0008957876 -0.01117796 -0.017954463 -0.01319998 -0.0050912234
-0.0020769686 0.0048798565 -0.0009858616 0.020696633 0.007191169 0.02730461 0.022760427 0.021553831
-0.024198782 -0.017139653 -0.005619249 0.016969288 0.0155864125 -0.0050118794 0.009151589 -0.015137384
0.011608461 0.014674767 -0.010088166 0.01987392 0.0045377226 0.01321499 -0.024942696 0.015845187
-0.015068489 -0.017066495 -0.0030186265 0.0062414203 -0.0039789146 -0.006227928 -0.0006724772 -0.022659734
0.029423166 0.019167248 0.0088993125 0.01782594 -0.013558988 0.007839135 -0.0012175303 -0.011903118
-0.0010372055 0.019100506 -0.011685867 0.005033807 0.01631634 0.02132541 0.01838537 -0.0075843018
-0.0035169516 0.019749707 0.0031189807 -0.026415197 0.0101222275 0.0022947225 -0.019681068 0.01387589
-0.0049874 0.0156052 -0.012580174 -0.00567944 -0.02396038 0.02039246 -0.02631429 -0.015495831
-0.012981577 0.0025775584 0.004029343 0.004150051 -0.0041222833 -0.023749627 0.004509484 -0.016787376
0.0030029227 0.02435396 0.0056735757 -0.022779446 0.020657888 0.004071974 0.0039838357 0.009997648
0.013600016 -0.03866417 -0.020202935 0.005599709 -0.00804101 0.011330168 0.02165428 0.002888864
0.014559106 -0.004856989 0.003231478 0.011001431 -0.022677874 -0.0101789385 -0.016124584 -0.005046625
-0.0043844124 0.046353195 0.019358601 0.014669716 -0.010088411 0.0005900075 -0.024941364 -0.024665134
-0.0030861793 0.005040616 0.01629431 0.019185651 -0.005789798 0.004584861 -0.013200373 -0.025469191

layer1.bias f4 [32]
00000000: 3e6c c6bc 039c b3bb 7f26 703b e9c1 3bba
00000010: 2eb3 0fbb 8aea 9fbc 23bf 9c3b bcb4 6a3c
00000020: e3f7 0f3d dc4e 8a3c 61fd 683c b386 b73b
00000030: 13c1 bfbc b8bc a23b a633 023d cfc1 833b
00000040: 9a88 ea3c ac2b e8bb 0d75 9bbc 52a7 59bc
00000050: 4b7c 9dbc a565 01bc 7fa8 deba 7b2a 783c
00000060: b49f 89bc 87aa 58bc b811 683c 6f5b ae3c
00000070: e507 9b3a e99c 34bc 15e6 b23c e424 3cbc
-0.024221536 -0.0054812445 0.003664404 -0.0007162379 -0.0021926868 -0.019521017 0.0047835275 0.014325317
0.035148513 0.016883306 0.0142205665 0.005600774 -0.023407495 0.0049663447 0.031787537 0.0040209065
0.02862959 -0.007085284 -0.018976713 -0.013284521 -0.019224307 -0.007897769 -0.0016987472 0.015146847
-0.016799785 -0.013224251 0.014164381 0.021283833 0.0011827914 -0.011023738 0.021838227 -0.011483405

layernorm1.weight f4 [32]
00000000: 5708 7f3f 5242 7d3f 7a33 803f ce03 803f
00000010: d77b 7d3f 9241 7c3f eb3a 7c3f c160 7d3f
00000020: 54e8 873f ec4d 7d3f d133 7f3f c71c 813f
00000030: 0b3d 7a3f 9f6e 763f 67ce 823f 0373 7f3f
00000040: 39e7 7b3f 9ffb 833f f145 7f3f b19d 803f
00000050: dbaf 7d3f c76c 803f d9ad 753f f25c 723f
00000060: 58a8 773f db92 7b3f 5750 7e3f a3c2 7c3f
00000070: 17b6 7e3f e28f 833f c470 7d3f bf95 7d3f
0.996221 0.9892932 1.0015709 1.0001161 0.9901709 0.9853755 0.985274 0.9897576
1.0617776 0.98947024 0.9968844 1.0086907 0.97749394 0.96262544 1.0219239 0.9978487
0.9839969 1.0311164 0.997161 1.0048124 0.9909646 1.0033196 0.95968395 0.94673073
0.9674125 0.9827096 0.9934134 0.9873449 0.994966 1.0278285 0.9900019 0.9905662

layernorm1.bias f4 [32]
00000000: 4efe 8fbc e8e2 d5bb 5ef4 be3b 9021 0ebc
00000010: b827 27bb ec3b dcbb c454 883c 5e89 73bc
00000020: 360f 253d 065e 15bc 86d4 18bc ec2a a53c
00000030: f119 093d 200c 1e3c b9c5 393c 835b 1a38
00000040: 8df7 033d ae31 433d f68a d6bb 74d9 153d
00000050: b430 19bc 9d36 803b 5ebe 913c 4625 85bd
00000060: b21c 5cbd a5c1 2b3d 8669 533b 4b0c 923c
00000070: 9973 4ebc 7cea 9a3c a60d 62bb d8ea 1dbc
-0.017577317 -0.0065272935 0.0058274707 -0.008674994 -0.0025505852 -0.0067210104 0.016641982 -0.014864294
0.04029771 -0.009116655 -0.009328013 0.020162068 0.033472005 0.0096464455 0.011338645 3.6801688e-05
0.032218505 0.0476548 -0.006547327 0.036584333 -0.009349991 0.0039127604 0.01779097 -0.0650125
-0.053738303 0.04193272 0.0032258942 0.017828127 -0.012600803 0.018910639 -0.0034492998 -0.009638511

blocks.0.fcn_layer.weight f4 [32, 32]
00000000: d47e 6ebd a6e9 cbbc f243 ee3d 2b43 ba3d
00000010: 8126 59bd 9bea 8e3e 4863 c4bd ff39 d6bd
00000020: 6cec 0bbe 8d19 823d aad8 1b3e 11de 81bc
00000030: ecda 0c3e 1e47 7d3d c1d4 18bc f903 0ebd
00000040: 87da 8dbc 327f 813d 3a5f 8a3d b87a bd39
00000050: 7263 cfbd 591a bfbd 544f d3bd d6ad aa3d
00000060: 2eeb 45bd ace2 06bd a3c4 48bc 7da6 4c3d
00000070: 0b32 913c e197 f83c 4e86 e6bd afa1 b8bd
00000080: 08c8 543c 0e3f f43d 004a 8abd af6c 15be
00000090: 3e91 95bd 73f4 b93c 7d07 09be c295 0cbe
000000a0: 6ab1 44bd 031d 8cbd 79ff d23d 2835 c33c
000000b0: 33e2 f43c a462 013e cd24 df3d 08e7 063d
000000c0: 2aa9 89bd dfe9 783d 0089 08be 68c1 4b3e
000000d0: 4c2b 29bd e7b1 05be d63e 0dbe 697c 2d3c
000000e0: b1ab 583c a57a 283d e8dc ebbd f774 edbd
000000f0: a6e9 d2bd afd2 4c3d 1089 163d a152 213e
00000100: 1bc3 82bd adce fcbd 603d e73d 563c 1e3d
00000110: a861 313e 3619 8a3c 79f5 eebd 7e73 2a3e
00000120: ec53 4e3d c1e0 be3d 1d1c edbd aba2 44bd
00000130: c047 863a a767 9d3c 0f52 fa3d df80 16be
00000140: cc52 26bd abc7 923c e843 18bd fe33 cdbd
00000150: 7238 433b 6a41 a63d 1203 37be 2274 2e3e
00000160: a45b ff3d 27fd 93bd cb4d aebd b78a e5bd
00000170: d367 1d3e ea4c 793d eb5c 213e 75b0 92bd
00000180: 4c05 8b3d 4c63 03be b364 f8bd 4155 12be
00000190: f079 c23d 4215 a4bd 2b31 823d b880 60bd
000001a0: 61ec 9dbd 369d a53d eefd 2d3e c90f a43c
000001b0: 1734 8bbd 168b d1bd 23d6 07bd 32fe 04be
000001c0: 1f52 9d3c fbe6 65bd b70e b1bd 7078 323e
000001d0: e7dc 173e d1e9 b43d 7c6c 86bd ed4d df3d
000001e0: 8d8a 213e ff82 c0bd 27d3 09be 20e7 c33d
000001f0: 5b40 133e df51 913d a145 f43d cb4f 183e
00000200: 2deb a3bd 7761 af3d 2dbf c4bd a68b e13c
00000210: 64fc 6c3c beaf bebd 0f76 2a3e 2395 93bc
00000220: 37b8 05be 5c2f 2d3d f685 abbd 83ef a03c
00000230: f684 c3bb a020 86bd 5445 e3bd fb10 b83d
00000240: 7c2f d63c 2b66 9ebd 988c 3c3d 50c5 74bd
00000250: 32f1 39bd 3a9b 4ebd deee bc3c 01d5 10bd
00000260: fb00 853b 132b d73d 7872 a6bd 2d04 343e
00000270: b110 febb 465c 02be ff6e 12be 2a94 ba3d
00000280: 5067 793d db6e 21be 9e63 3bbe 4605 3ebe
00000290: 38ce e33d 1060 b03d 4b93 6ebd 209b 0abe
000002a0: 0f6f 0f3e f817 85bd 0160 213e f0e2 bc3d
000002b0: 35ec 853d d90a 963c 9e2c 033c ec0a 33be
000002c0: a37b 2d3e d32c 353d b5ff 983b 3966 083e
000002d0: 9d5f e93d 5a6c 1fbe b03c 44bd 8028 9d3d
000002e0: 8168 e73d c235 eb3c 4b51 1b3e a843 16be
000002f0: 7848 21be aee5 e7bd 2d98 6fbd c4df 58bd
00000300: d9f7 633c 7ae3 0cbe 304c 9bbd 8c62 5bbd
00000310: c4fe 40be dc7c ab3b 0789 e0bd e0c4 de3d
00000320: 3228 3ebd fa8a 033e 6ed8 a8bd 5948 d33d
00000330: eb17 9bbd 3246 dcbd af3b dcbd b203 03b9
00000340: f4c8 de3d 00d6 7cbd 4184 d73d bd65 1c3d
00000350: 91a2 17be bb7b 273d 60f1 073e 2c6d bb3d
00000360: 8b8d 093e 1a2c b73d 438c c63d 4322 adbd
00000370: e7e1 a23c 4310 b03d 6126 493d 5c17 253d
00000380: 27e9 b13c 10c3 1f3e 7719 7c3d 25ad 57bd
00000390: 6391 91bc be53 263d 2c56 1c3d aee2 e7bd
000003a0: 4077 693e ce2e cbbd 219f dfbd 1c71 b4bc
000003b0: 333a 40bd 27bb 92bd 01c7 6a3d f0bc e3bc
000003c0: fa27 b23d edde 5ebd eb6b f0bd eb39 983d
000003d0: df44 eabd e729 013e 4bfd cfbd 35b2 ac3c
000003e0: c92a 94bd 962d 8bbd 5d1c 123e 5f52 7fbd
000003f0: 2167 1e3e 74b3 16be e049 e8bd d647 053e
-0.05822642 -0.024891686 0.11634053 0.090948425 -0.053015236 0.27913365 -0.09589249 -0.104602806
-0.13664407 0.0635253 0.1521937 -0.01585296 0.13755387 0.0618354 -0.009328068 -0.034671757
-0.017316116 0.06323089 0.06756444 0.00036140322 -0.101263896 -0.09331197 -0.10317865 0.08333938
-0.048319988 -0.032931015 -0.012253913 0.049963463 0.017724058 0.030345859 -0.11256085 -0.09015214
0.012987144 0.11926089 -0.06752396 -0.14592241 -0.073030934 0.02269957 -0.13381763 -0.13729003
-0.048020758 -0.06841471 0.10302634 0.023829058 0.029893016 0.12635285 0.10895691 0.032935172
-0.067217186 0.06076991 -0.13333511 0.19897997 -0.041301057 -0.13056146 -0.13793501 0.010588744
0.013224528 0.041132588 -0.11516744 -0.11594575 -0.10298471 0.05000561 0.036751807 0.15754177
-0.0638487 -0.12344108 0.11291003 0.03863176 0.17322409 0.016857725 -0.11667914 0.1664562
0.050373003 0.09320212 -0.11577628 -0.048006695 0.0010244772 0.019214464 0.12222683 -0.14697598
-0.040606305 0.017917475 -0.037174135 -0.10019682 0.0029788283 0.081179455 -0.17872265 0.17036489
0.12468651 -0.07226019 -0.085109316 -0.112080984 0.15371637 0.060864367 0.15758102 -0.07162563
0.0678812 -0.12830848 -0.12128582 -0.14290334 0.09495914 -0.08011867 0.06357034 -0.054810256
-0.07711101 0.08086626 0.16991398 0.020027058 -0.06797045 -0.10231607 -0.0331632 -0.12987593
0.019204197 -0.056128483 -0.08645385 0.17428756 0.14830361 0.088336594 -0.065636605 0.10903535
0.15775509 -0.093999855 -0.13459454 0.09565568 0.14380018 0.07095694 0.11927343 0.14874189
-0.080038406 0.08563512 -0.096067764 0.02753241 0.0144644715 -0.09310864 0.16646598 -0.01801545
-0.13058554 0.042281494 -0.083751604 0.019645458 -0.005966778 -0.065491915 -0.11097208 0.08987614
0.02614569 -0.07734331 0.04603252 -0.059758484 -0.045396037 -0.050441004 0.02306312 -0.035359386
0.004058955 0.10506263 -0.08127302 0.17579718 -0.0077534546 -0.12730512 -0.14300154 0.09110291
0.060889542 -0.15764944 -0.1829972 -0.18556699 0.111233175 0.086120725 -0.05824594 -0.13535738
0.14007209 -0.06498712 0.15759279 0.092229724 0.065391935 0.01831572 0.008006243 -0.17484635
0.16941695 0.0442322 0.0046691545 0.13320245 0.1139519 -0.15568677 -0.04790944 0.076737404
0.112992294 0.028712157 0.1516773 -0.14674246 -0.15750301 -0.11323105 -0.058494736 -0.052947775
0.013914072 -0.1375865 -0.07582891 -0.05356078 -0.18847185 0.0052333903 -0.10963636 0.10877395
-0.046425052 0.12845984 -0.08244406 0.103165336 -0.07572921 -0.10755576 -0.10753571 -0.0001249451
0.108781725 -0.061727524 0.10523272 0.038182963 -0.14808108 0.040889483 0.13275671 0.09151682
0.134329 0.089439586 0.096947215 -0.084538005 0.01988311 0.08596852 0.049108867 0.04030548
0.021717621 0.15601754 0.061547723 -0.052655358 -0.017769521 0.040607207 0.038168117 -0.113225326
0.22799397 -0.09921037 -0.10919023 -0.022026591 -0.046930503 -0.07164603 0.05731869 -0.027800053
0.08699031 -0.054411817 -0.11739334 0.07432922 -0.11438917 0.1261364 -0.10155734 0.02108107
-0.07234723 -0.06795804 0.14268632 -0.062334415 0.15469028 -0.14716893 -0.113422155 0.13015684

blocks.0.fcn_layer.bias f4 [32]
00000000: f88d 313d 1e79 a1bd 5817 5a3a 91b4 0bbe
00000010: 4a60 9f3d 75b4 82bd ffdb 1d3e f45a 9f3d
00000020: 9e06 083e 505e f93d e45f 03be ed0e cfbd
00000030: 9955 ddbb 8c1f 08be e328 de3c 2d95 09be
00000040: 8f47 a43c 66f2 d0bd 89e3 90bd 2dbf eabd
00000050: de90 433d 5f37 c1bd d555 e53d 8999 e83d
00000060: 830f d13d 0c83 08bd 9dc8 273e 5672 12be
00000070: e9a5 2cbe 7045 be3d 18f5 b03d dcfd ff3d
0.043348283 -0.078844294 0.00083195185 -0.136431 0.077820376 -0.06382076 0.15415953 0.0778102
0.13283774 0.12176192 -0.12829548 -0.10110269 -0.006754589 -0.13293284 0.027119106 -0.13435812
0.020053653 -0.10202484 -0.07074649 -0.11462245 0.047745578 -0.09434389 0.11198012 0.113574095
0.10208037 -0.0333281 0.16385122 -0.14301428 -0.16860165 0.09290588 0.08640498 0.12499592

blocks.0.layer_norm.weight f4 [32]
00000000: a0da 853f b64f 853f 7684 803f 7de9 7d3f
00000010: bc9c 783f 7963 a73f b0ab 9b3f 9a82 a43f
00000020: d9d3 893f 853a 853f 3a0d 9c3f e1fd 7f3f
00000030: 1aaa a23f 3eec a33f 5a44 803f 0003 803f
00000040: 32e0 9b3f aeb0 7a3f 1a36 b23f 93d7 823f
00000050: 2889 7f3f f41f 823f 44c5 8a3f 3f17 9d3f
00000060: 5f9e 7d3f 45a1 8d3f 61a8 913f ff68 803f
00000070: 6640 803f efb5 8b3f d9bc a03f e732 803f
1.0457344 1.0414951 1.0040424 0.991844 0.9711416 1.3077232 1.216177 1.2852356
1.0767776 1.0408484 1.2191536 0.99996763 1.2708161 1.280647 1.0020859 1.0000916
1.2177794 0.9792584 1.392276 1.0222038 0.9981866 1.0166001 1.0841451 1.2272719
0.9906978 1.106484 1.137951 1.0032042 1.0019653 1.0914897 1.2557632 1.0015534

blocks.0.layer_norm.bias f4 [32]
00000000: a245 3c3d 3df5 663d fe52 953c bcb0 adbc
00000010: ffd8 33bd baa5 8b3e cbb8 753e e3a7 853e
00000020: f830 2e3d 20d3 283d 046e 723e ee55 ac3b
00000030: 9b93 843e 9efc 843e 2fed a53c c41e 043b
00000040: 5bbc 773e f38a dabc 545b 9d3e 245c 283c
00000050: bf54 453b 715e 803c 2345 9c3d 7dbe 743e
00000060: 6703 50bc ccb3 ab3d 819c 883d 43d9 ae3a
00000070: 60a1 7f3b dc57 383d 6f91 803e fbf6 c239
0.045964845 0.05638622 0.01822805 -0.021202438 -0.043908115 0.27274877 0.23996274 0.2610465
0.04252717 0.04121697 0.2367478 0.005259267 0.25893864 0.25973982 0.0202547 0.002015994
0.24192946 -0.026677584 0.3073374 0.010275874 0.0030110327 0.015670033 0.07630374 0.2390079
-0.012696124 0.08383903 0.06670476 0.0013339896 0.00390061 0.045005664 0.25110957 0.00037186578

last_layer.weight f4 [1, 32]
00000000: 92e2 3d3e f2bf 3c3d f9f8 38bc d06a a3bd
00000010: 520e 3ebd b44d a9be 0db4 9fbe 3af6 a8be
00000020: bb98 ce3d 3b09 0c3e fdbc b0be 5c0f 08bb
00000030: 5cfe a3be fe5e a9be 6078 62bb 98a3 54bc
00000040: 3f5c a0be 72a9 4bbd 4c9b b8be 6322 de3c
00000050: cf09 313e df05 0d3e 0397 813d 18ee abbe
00000060: db75 3e3d b665 853e f143 4f3e 7822 b33d
00000070: 5b77 83bd a8ad 7f3e 777d a8be a5b3 653d
0.18543461 0.04608149 -0.011289828 -0.07979357 -0.046400376 -0.33067095 -0.31192055 -0.33000356
0.10087725 0.13675396 -0.34519187 -0.0020761108 -0.32029998 -0.33080286 -0.0034556612 -0.012978457
-0.31320378 -0.049722143 -0.36055982 0.027116006 0.17288898 0.13771771 0.06327631 -0.3358009
0.046499114 0.26054162 0.20240761 0.08746809 -0.064192496 0.24968588 -0.32908222 0.056079526
